…
(x_train.shape, y_train.shape), (x_test.shape, y_test.shape) (((26385, 106, 160, 1), (26385, 8)), ((8796, 106, 160, 1), (8796, 8)))
2023-02-20 07:56:17.901492: I tensorflow/core/platform/cpu_feature_guard.cc:193] This TensorFlow binary is optimized with oneAPI Deep Neural Network Library (oneDNN) to use the following CPU instructions in performance-critical operations:  AVX AVX2
To enable them in other operations, rebuild TensorFlow with the appropriate compiler flags.
Model: "sequential"
_________________________________________________________________
 Layer (type)                Output Shape              Param #
=================================================================
 max_pooling2d (MaxPooling2D  (None, 53, 80, 1)        0
 )

 dropout (Dropout)           (None, 53, 80, 1)         0

 conv2d (Conv2D)             (None, 51, 78, 64)        640

 max_pooling2d_1 (MaxPooling  (None, 25, 39, 64)       0
 2D)

 dropout_1 (Dropout)         (None, 25, 39, 64)        0

 conv2d_1 (Conv2D)           (None, 23, 37, 64)        36928

 flatten (Flatten)           (None, 54464)             0

 dense (Dense)               (None, 64)                3485760

 dropout_2 (Dropout)         (None, 64)                0

 dense_1 (Dense)             (None, 32)                2080

 dense_2 (Dense)             (None, 8)                 264

=================================================================
Total params: 3,525,672
Trainable params: 3,525,672
Non-trainable params: 0
_________________________________________________________________
Epoch 1/100
1056/1056 [==============================] - 377s 352ms/step - loss: 1.5663 - accuracy: 0.4008 - val_loss: 1.2002 - val_accuracy: 0.5136 - lr: 0.0010
Epoch 2/100
1056/1056 [==============================] - 372s 353ms/step - loss: 1.1495 - accuracy: 0.5507 - val_loss: 1.0316 - val_accuracy: 0.5963 - lr: 0.0010
…
